…
The Training data consisted of real life images, taken from the Bosch Dataset. For the classifier, the annotated boxes in the Bosch dataset were using to crop the image to the light. The dataset was then extended by images taken from the simulator. These images had to be labeled manually by drawing boxes with Sloth ().
The second approach uses a CNN classifier to classify the camera raw images into red traffic light or no red traffic light. This approach works alot faster, but might be of disadvantage in real life testing. It is inspired and based on a CNN architecture found at another team: -capstone
The dataset for this classifier was also based on the Bosch dataset and simulator images. The input size of the images are 400x400x3.
Layer (type) Output Shape Param # Connected to
convolution2d_1 (Convolution2D) (None, 398, 398, 32) 896 convolution2d_input_1[0][0]
convolution2d_2 (Convolution2D) (None, 396, 396, 32) 9248 convolution2d_1[0][0]
maxpooling2d_1 (MaxPooling2D) (None, 198, 198, 32) 0 convolution2d_2[0][0]
convolution2d_3 (Convolution2D) (None, 196, 196, 32) 9248 maxpooling2d_1[0][0]
maxpooling2d_2 (MaxPooling2D) (None, 98, 98, 32) 0 convolution2d_3[0][0]
convolution2d_4 (Convolution2D) (None, 96, 96, 32) 9248 maxpooling2d_2[0][0]
maxpooling2d_3 (MaxPooling2D) (None, 48, 48, 32) 0 convolution2d_4[0][0]
convolution2d_5 (Convolution2D) (None, 46, 46, 32) 9248 maxpooling2d_3[0][0]
maxpooling2d_4 (MaxPooling2D) (None, 23, 23, 32) 0 convolution2d_5[0][0]
convolution2d_6 (Convolution2D) (None, 21, 21, 32) 9248 maxpooling2d_4[0][0]
maxpooling2d_5 (MaxPooling2D) (None, 10, 10, 32) 0 convolution2d_6[0][0]
convolution2d_7 (Convolution2D) (None, 8, 8, 32) 9248 maxpooling2d_5[0][0]
maxpooling2d_6 (MaxPooling2D) (None, 4, 4, 32) 0 convolution2d_7[0][0]
dropout_1 (Dropout) (None, 4, 4, 32) 0 maxpooling2d_6[0][0]
flatten_1 (Flatten) (None, 512) 0 dropout_1[0][0]
dropout_2 (Dropout) (None, 512) 0 flatten_1[0][0]
dense_1 (Dense) (None, 128) 65664 dropout_2[0][0]
dropout_3 (Dropout) (None, 128) 0 dense_1[0][0]
dense_2 (Dense) (None, 2) 258 dropout_3[0][0]
Total params: 122,306 Trainable params: 122,306 Non-trainable params: 0
To find the closest path waypoint to the upcoming traffic light, we divide the problem in 3 parts:
How to solve the complexity problem of calculating distances over large set of points in a reasonable amount of time. Here we used the so called "Kd Tree algorithm" (k-dimensional tree), which is one solution to the Nearest neighbor search problem (NNS) which is the optimization problem of finding the point in a given set that is closest (or most similar) to a given point 
…
